…
=3, activation=&quot;relu&quot;, padding=&#39;same&#39;), layers.MaxPool2D(), # Third Convolutional Block layers.Conv2D(filters=128, kernel_size=3, activation=&quot;relu&quot;, padding=&#39;same&#39;), layers.MaxPool2D(), # Classifier Head layers.Flatten(), layers.Dense(units=6, activation=&quot;relu&quot;), layers.Dense(units=1, activation=&quot;sigmoid&quot;), ]) model.summary() . Model: &#34;sequential_5&#34; _________________________________________________________________ Layer (type) Output Shape Param # ================================================================= conv2d_5 (Conv2D) (None, 128, 128, 32) 2432 _________________________________________________________________ max_pooling2d_4 (MaxPooling2 (None, 64, 64, 32) 0 _________________________________________________________________ conv2d_6 (Conv2D) (None, 64, 64, 64) 18496 _________________________________________________________________ max_pooling2d_5 (MaxPooling2 (None, 32, 32, 64) 0 _________________________________________________________________ conv2d_7 (Conv2D) (None, 32, 32, 128) 73856 _________________________________________________________________ max_pooling2d_6 (MaxPooling2 (None, 16, 16, 128) 0 _________________________________________________________________ flatten (Flatten) (None, 32768) 0 _________________________________________________________________ dense (Dense) (None, 6) 196614 _________________________________________________________________ dense_1 (Dense) (None, 1) 7 ================================================================= Total params: 291,405 Trainable params: 291,405 Non-trainable params: 0 _________________________________________________________________ . model.compile( optimizer=tf.keras.optimizers.Adam(epsilon=0.01), loss=&#39;binary_crossentropy&#39;, metrics=[&#39;binary_accuracy&#39;] ) history = model.fit( ds_train, validation_data=ds_vali
…
